…
margins: [0, 0]
mask_shapes: [64, 64]
mask_type: rect
max_delta_shapes: [32, 32]
model_folder: ./checkpoints\20191009-202638_GMCNN_Thanka_b4_s256x256_gc32_dc64_randmask-rect_pretrain
model_name: GMCNN
padding: SAME
phase: train
pretrain_network: True
random_crop: True
random_mask: True
random_seed: False
spectral_norm: True
train_spe: 100
vgg19_path: vgg19_weights/imagenet-vgg-verydeep-19.mat
viz_steps: 5
-------------- End ----------------
loading data..
data loaded..
configuring model..
initialize network with normal
---------- Networks initialized -------------
GMCNN(
  (EB1): ModuleList(
    (0): Conv2d(4, 32, kernel_size=(7, 7), stride=(1, 1))
    (1): Conv2d(32, 64, kernel_size=(7, 7), stride=(2, 2))
    (2): Conv2d(64, 64, kernel_size=(7, 7), stride=(1, 1))
    (3): Conv2d(64, 128, kernel_size=(7, 7), stride=(2, 2))
    (4): Conv2d(128, 128, kernel_size=(7, 7), stride=(1, 1))
    (5): Conv2d(128, 128, kernel_size=(7, 7), stride=(1, 1))
    (6): Conv2d(128, 128, kernel_size=(7, 7), stride=(1, 1), dilation=(2, 2))
    (7): Conv2d(128, 128, kernel_size=(7, 7), stride=(1, 1), dilation=(4, 4))
    (8): Conv2d(128, 128, kernel_size=(7, 7), stride=(1, 1), dilation=(8, 8))
    (9): Conv2d(128, 128, kernel_size=(7, 7), stride=(1, 1), dilation=(16, 16))
    (10): Conv2d(128, 128, kernel_size=(7, 7), stride=(1, 1))
    (11): Conv2d(128, 128, kernel_size=(7, 7), stride=(1, 1))
    (12): PureUpsampling()
  )
  (EB2): ModuleList(
    (0): Conv2d(4, 32, kernel_size=(5, 5), stride=(1, 1))
    (1): Conv2d(32, 64, kernel_size=(5, 5), stride=(2, 2))
    (2): Conv2d(64, 64, kernel_size=(5, 5), stride=(1, 1))
    (3): Conv2d(64, 128, kernel_size=(5, 5), stride=(2, 2))
    (4): Conv2d(128, 128, kernel_size=(5, 5), stride=(1, 1))
    (5): Conv2d(128, 128, kernel_size=(5, 5), stride=(1, 1))
    (6): Conv2d(128, 128, kernel_size=(5, 5), stride=(1, 1), dilation=(2, 2))
    (7): Conv2d(128, 128, kernel_size=(5, 5), stride=(1, 1), dilation=(4, 4))
    (8): Conv2d(128, 128, kernel_size=(5, 5), stride=(1, 1), dilation=(8, 8))
    (9): Conv2d(128, 128, kernel_size=(5, 5), stride=(1, 1), dilation=(16, 16))
    (10): Conv2d(128, 128, kernel_size=(5, 5), stride=(1, 1))
    (11): Conv2d(128, 128, kernel_size=(5, 5), stride=(1, 1))
    (12): PureUpsampling()
    (13): Conv2d(128, 64, kernel_size=(5, 5), stride=(1, 1))
    (14): Conv2d(64, 64, kernel_size=(5, 5), stride=(1, 1))
    (15): PureUpsampling()
  )
  (EB3): ModuleList(
    (0): Conv2d(4, 32, kernel_size=(3, 3), stride=(1, 1))
    (1): Conv2d(32, 64, kernel_size=(3, 3), stride=(2, 2))
    (2): Conv2d(64, 64, kernel_size=(3, 3), stride=(1, 1))
    (3): Conv2d(64, 128, kernel_size=(3, 3), stride=(2, 2))
    (4): Conv2d(128, 128, kernel_size=(3, 3), stride=(1, 1))
    (5): Conv2d(128, 128, kernel_size=(3, 3), stride=(1, 1))
    (6): Conv2d(128, 128, kernel_size=(3, 3), stride=(1, 1), dilation=(2, 2))
    (7): Conv2d(128, 128, kernel_size=(3, 3), stride=(1, 1), dilation=(4, 4))
    (8): Conv2d(128, 128, kernel_size=(3, 3), stride=(1, 1), dilation=(8, 8))
    (9): Conv2d(128, 128, kernel_size=(3, 3), stride=(1, 1), dilation=(16, 16))
    (10): Conv2d(128, 128, kernel_size=(3, 3), stride=(1, 1))
    (11): Conv2d(128, 128, kernel_size=(3, 3), stride=(1, 1))
    (12): PureUpsampling()
    (13): Conv2d(128, 64, kernel_size=(3, 3), stride=(1, 1))
    (14): Conv2d(64, 64, kernel_size=(3, 3), stride=(1, 1))
    (15): PureUpsampling()
    (16): Conv2d(64, 32, kernel_size=(3, 3), stride=(1, 1))
    (17): Conv2d(32, 32, kernel_size=(3, 3), stride=(1, 1))
  )
  (decoding_layers): ModuleList(
    (0): Conv2d(224, 16, kernel_size=(3, 3), stride=(1, 1))
    (1): Conv2d(16, 3, kernel_size=(3, 3), stride=(1, 1))
  )
  (pads): ModuleList(
    (0): ReflectionPad2d((0, 0, 0, 0))
    (1): ReflectionPad2d((1, 1, 1, 1))
    (2): ReflectionPad2d((2, 2, 2, 2))
    (3): ReflectionPad2d((3, 3, 3, 3))
    (4): ReflectionPad2d((4, 4, 4, 4))
    (5): ReflectionPad2d((5, 5, 5, 5))
    (6): ReflectionPad2d((6, 6, 6, 6))
    (7): ReflectionPad2d((7, 7, 7, 7))
    (8): ReflectionPad2d((8, 8, 8, 8))
…
